model/model.onnx (onnx, 833408 bytes, 24 tensors)

mlp_encoder.0.weight f2 [512, 195]
00000000: 3733 bb37 f0b2 1fb8 3934 c3b1 342c 222c
00000010: 3e36 8aa2 44ba 0e38 d031 a9ab eea9 c2b0
00000020: 459b 72b4 1d38 ca30 d2ad 1eb9 0530 0cac
00000030: f533 3eb0 2f3a a1b6 ba37 162d 60b0 b72f
00000040: 77ae ada6 24b3 34aa d629 6c2c cd37 eb31
00000050: 5c35 c834 93b1 9036 b2b1 2927 69ac bb36
00000060: d0b3 95b8 b837 ee2c f8b6 25b6 fb29 6631
00000070: abb4 3f34 6934 b3b2 dd33 18b6 0334 3bb8
00000080: ff32 ef2f 6ca9 d12d 9532 f0b2 f42c e2ad
00000090: 2328 a52e ae35 0128 672f 9e30 2439 58b1
000000a0: 2a33 d1b6 ce36 28ab 5eac ba29 2b33 18b0
000000b0: 48b9 d836 f2ae 46b5 79b4 54a7 3f1b d5b2
000000c0: 432c 2632 1a30 7e33 23ae 251f 7635 13b1
000000d0: 2fb5 2e31 64b4 fcb4 7029 b623 e2b0 c49d
000000e0: 71b5 8630 4fab b630 b0b1 4234 46b2 7731
000000f0: ef28 2238 5bad a0a6 1eaa 472b 16b0 aeb0
00000100: 0536 1eb0 67b0 ad32 32ba 6fac 8cb5 c6b8
00000110: 10b5 8f3a 562b 6833 9232 e9b7 03b4 0eb5
00000120: 5daf 60b9 bcb8 8934 fb1e dbad 832c 4bb6
00000130: 68b1 5e21 3031 23b6 1326 3cad 07ae f1b5
00000140: 3935 4ea9 842c 3ca5 80af 3435 9734 6b35
00000150: b8a8 06b2 4e3a 5db8 06b6 61a8 4cb7 e930
00000160: 5232 d92c 0a38 5a3a 8b30 6532 e5b3 1aad
00000170: aeb2 92b2 0d36 a22a 0334 2224 22b4 0db3
00000180: b931 bbac 25b0 13b6 d2af efb6 48b8 3b30
00000190: c332 0d2c e8aa 86ae bb36 9637 a633 862e
000001a0: c6ad abb0 be36 7330 a132 f7b1 9d2c 9834
000001b0: a134 afaf 97af e92e 6127 e026 d7a5 41af
000001c0: be33 bb31 4628 e435 c5a8 5db6 822c 862c
000001d0: 77b0 4cb1 8da9 84b1 c0ac 5d31 28ac 4c2f
000001e0: 35a8 9ca8 edae bb30 0538 4534 4d30 bf25
000001f0: 0fb4 4b36 952f 6933 21b5 baa0 123a eb35
0.2255 0.4832 -0.2168 -0.515 0.264 -0.18 0.0657 0.0646
0.3901 -0.01277 -0.783 0.507 0.1816 -0.05984 -0.04633 -0.1487
-0.00355 -0.2778 0.514 0.1497 -0.09094 -0.6396 0.1256 -0.06323
0.2487 -0.1326 0.773 -0.4143 0.483 0.07947 -0.1367 0.12054
-0.101 -0.02608 -0.2231 -0.04846 0.0456 0.0691 0.4875 0.1849
0.335 0.2988 -0.1742 0.4102 -0.178 0.02797 -0.0689 0.4207
-0.2441 -0.5728 0.4824 0.077 -0.4355 -0.384 0.04672 0.1687
-0.2917 0.2654 0.2756 -0.2094 0.2457 -0.3809 0.2507 -0.529
0.2186 0.12396 -0.04236 0.0909 0.2057 -0.2168 0.0774 -0.0919
0.03232 0.1038 0.355 0.03128 0.11566 0.1443 0.6426 -0.167
0.2239 -0.426 0.4253 -0.0559 -0.06824 0.04474 0.224 -0.1279
-0.66 0.4277 -0.1085 -0.3296 -0.2795 -0.02863 0.003538 -0.2135
0.0666 0.1921 0.1282 0.2341 -0.0959 0.006977 0.3413 -0.1586
-0.324 0.1619 -0.2744 -0.3115 0.04248 0.01506 -0.1526 -0.00563
-0.34 0.1414 -0.0571 0.1472 -0.1777 0.266 -0.196 0.1708
0.03854 0.5166 -0.0837 -0.02588 -0.0478 0.05685 -0.1277 -0.1462
0.3762 -0.1287 -0.1376 0.2086 -0.7744 -0.0693 -0.3467 -0.5967
-0.3164 0.82 0.0573 0.2314 0.2053 -0.4944 -0.2507 -0.316
-0.11505 -0.672 -0.592 0.2834 0.006817 -0.0915 0.0705 -0.3933
-0.169 0.01048 0.1621 -0.3835 0.02373 -0.0818 -0.0942 -0.3713
0.3264 -0.04144 0.07056 -0.02045 -0.1172 0.3252 0.2869 0.3386
-0.03687 -0.1882 0.788 -0.5454 -0.3765 -0.0342 -0.456 0.1534
0.1975 0.07574 0.505 0.794 0.142 0.1998 -0.2467 -0.0797
-0.2087 -0.2053 0.3782 0.05182 0.2507 0.01614 -0.2583 -0.2203
0.1788 -0.0739 -0.1295 -0.3796 -0.1222 -0.4333 -0.535 0.1322
0.2113 0.0633 -0.05396 -0.1019 0.4207 0.474 0.239 0.1019
-0.0902 -0.1459 0.4214 0.139 0.2072 -0.1864 0.0721 0.287
0.2893 -0.12006 -0.1186 0.108 0.02882 0.02686 -0.02281 -0.11334
0.242 0.1791 0.0334 0.3682 -0.03726 -0.3977 0.07043 0.0707
-0.1395 -0.1655 -0.04337 -0.1724 -0.0742 0.1676 -0.06494 0.114
-0.03287 -0.036 -0.1082 0.1478 0.5024 0.2668 0.1344 0.02245
-0.2537 0.3933 0.11847 0.2316 -0.3206 -0.00923 0.759 0.3699

mlp_encoder.0.bias f2 [512]
00000000: 83b0 4eb8 17b5 4cae afae 4322 5db4 bdb4
00000010: edad 48b4 ffb0 1fb0 efaa 4e30 6432 b42c
00000020: efa5 0126 55b3 9131 3e27 89b6 d9af eea1
00000030: 07b9 cfaf e0a8 e82e 2133 7498 e2b4 0e23
00000040: 12b7 f131 d935 35a9 98ac 5ea7 e6ad ceaf
00000050: b9b5 b430 8629 40a6 32b5 0c1a 63af 7528
00000060: 96b3 14ad 022e 0429 4a31 39b4 b8b1 dfb5
00000070: 2033 6131 46af 0ab0 6d2f 2a34 5f2e 08af
00000080: 222d f420 0f2c 01ad e0a9 18aa 29b0 602e
00000090: 0e30 f7ae 9fab d032 aeb4 f733 2cb2 a72c
000000a0: 3a35 61b4 b624 39b0 d1a8 c821 5925 8db1
000000b0: 6aae a0a4 ccb1 08b0 f5a9 64b0 56b8 f3b0
000000c0: 7020 e625 2f2f 64b3 002d 5d27 66b0 54b0
000000d0: 052d dfa0 1428 43b7 95af 30ad 972e a628
000000e0: cda1 9eb0 b119 27b0 b826 3d34 1ab3 ecb1
000000f0: 26b0 4932 e332 d6b1 d8ae c62b 15b1 2b30
00000100: 9ab4 25b5 5929 e827 422f 02ae 27af 4729
00000110: 57ad 432e cd2f 7734 3aac 8ab5 2029 7aaf
00000120: 1baf 49a0 7cb5 d2a8 ceb1 2a2d 2baf 1b2e
00000130: 8525 3f28 fbad b72a fa2d 272d 54ad b4a5
00000140: cd2f 18ad e02e 33b4 24ab 3eb0 b924 2f31
00000150: 67ac aa2e 5dac 952a 12ac 482e c09b 86ac
00000160: b835 06ab a9b0 d833 4d30 efb6 0ab5 56af
00000170: 6fae 0429 4b27 5221 5eb2 fb2f b531 052f
00000180: 9120 c8af 4521 1db1 0629 8031 d830 efb4
00000190: b332 c1b3 1830 d9ad 7e33 c9b3 dab1 d2ad
000001a0: 71b2 0ab6 84b1 1428 a4a6 4d26 5fa3 0a2d
000001b0: 3c2b 6fb2 949d d230 fbb5 b830 60b1 0832
000001c0: 3cba 03ab 1394 4ab4 9833 3bb4 92a8 a42b
000001d0: 35b1 5b28 e6af 53b0 8834 d4ae 5f33 a4ac
000001e0: 24b1 83b4 8e2c 292c 57ae 93ae ddb1 95ab
000001f0: de32 39b1 f52d c4b5 9135 7a2c 2aae 6ba3
-0.141 -0.538 -0.318 -0.0984 -0.10443 0.01223 -0.2727 -0.2961
-0.0926 -0.2676 -0.1561 -0.1288 -0.05417 0.1345 0.1997 0.0735
-0.02318 0.02345 -0.2291 0.174 0.02829 -0.4084 -0.1226 -0.01158
-0.6284 -0.122 -0.0381 0.1079 0.2228 -0.002174 -0.3052 0.01378
-0.442 0.1857 0.3655 -0.04068 -0.0718 -0.02878 -0.09216 -0.12195
-0.3577 0.147 0.04315 -0.02441 -0.3247 0.002953 -0.1154 0.03482
-0.237 -0.07935 0.0939 0.03918 0.1653 -0.264 -0.1787 -0.367
0.2227 0.1681 -0.11365 -0.1262 0.116 0.2603 0.09955 -0.10986
0.0802 0.009674 0.0634 -0.0782 -0.0459 -0.0476 -0.13 0.0996
0.1267 -0.1088 -0.05954 0.2129 -0.2925 0.2489 -0.1929 0.0727
0.3267 -0.2737 0.0184 -0.132 -0.03763 0.01129 0.02089 -0.1735
-0.1002 -0.01807 -0.1812 -0.126 -0.04654 -0.1372 -0.542 -0.1547
0.00867 0.02304 0.11224 -0.231 0.0781 0.02876 -0.1375 -0.1353
0.0784 -0.009514 0.03186 -0.4539 -0.11847 -0.08105 0.10297 0.03632
-0.01133 -0.1443 0.002779 -0.1298 0.02625 0.265 -0.2219 -0.185
-0.1296 0.1964 0.2152 -0.1824 -0.10693 0.06073 -0.1588 0.1302
-0.2876 -0.3215 0.04178 0.03088 0.1134 -0.0939 -0.11176 0.04123
-0.08344 0.09784 0.1219 0.279 -0.06604 -0.3462 0.04004 -0.1168
-0.111 -0.00837 -0.3428 -0.03766 -0.1814 0.0807 -0.112 0.0954
0.02156 0.03317 -0.09344 0.05246 0.0934 0.0805 -0.08325 -0.02228
0.1219 -0.0796 0.1074 -0.2625 -0.0558 -0.1326 0.01845 0.162
-0.0688 0.1041 -0.0682 0.05142 -0.0636 0.09814 -0.003784 -0.0707
0.3574 -0.05487 -0.1456 0.2451 0.1344 -0.4333 -0.315 -0.1146
-0.1005 0.03918 0.02849 0.01039 -0.199 0.1247 0.1783 0.1097
0.00892 -0.1216 0.01029 -0.1598 0.03925 0.1719 0.1514 -0.3083
0.2094 -0.2423 0.1279 -0.0914 0.2341 -0.2433 -0.1829 -0.09094
-0.2013 -0.3774 -0.1724 0.03186 -0.02594 0.02461 -0.0144 0.07874
0.05652 -0.201 -0.005447 0.1506 -0.3738 0.1475 -0.168 0.1885
-0.7793 -0.05478 -0.000995 -0.268 0.2373 -0.2644 -0.0357 0.0597
-0.1627 0.03403 -0.1234 -0.1351 0.2832 -0.1067 0.2303 -0.0725
-0.1606 -0.282 0.07117 0.065 -0.09906 -0.1027 -0.1832 -0.05923
0.2146 -0.1632 0.0931 -0.3604 0.348 0.06995 -0.0963 -0.01449

mlp_encoder.2.weight f2 [256, 512]
00000000: 4322 2537 57b1 22b4 4735 5b2a 0539 3d35
00000010: f533 4435 582f 7caa 7435 d92e 53b1 752c
00000020: e1b3 322e ffb4 97b3 bdb0 c634 812d 2eb1
00000030: cf39 dc31 ad34 75b3 5fb7 34ad 2835 7a33
00000040: 982c 5f28 aeb5 0da9 9634 4db6 48b3 b935
00000050: d937 d5b2 bf1c 8f32 6a35 75b0 73b5 8535
00000060: b12e 402d 53b2 e533 deb8 4831 3235 8038
00000070: a425 0124 482d 0730 1db6 0b2a 8a2f 1b32
00000080: e230 39b3 7bb4 00b5 cfb7 44b3 07a8 2c2c
00000090: 672a ebab 492e 1929 5437 1fb8 e636 772d
000000a0: 26aa 21ac de33 7a32 aead d9ac 6434 e4ab
000000b0: a233 88b2 b82e 83ab 772f d12e b638 16b5
000000c0: eeb0 0230 b022 b532 35ab 28af 7e28 2d36
000000d0: 9bb5 eeae b32b 7d38 efb4 a52d ff34 5ab7
000000e0: 96b4 f935 9229 e3a6 0732 07b7 8714 3936
000000f0: 85b3 1a2c 3b33 35ad e4b3 1238 5837 212a
00000100: 0135 00a7 66b4 b0b2 c432 2330 d934 f0ae
00000110: b137 6db7 89b6 1b32 2534 7433 e6b0 1b36
00000120: 7fad d527 90b4 7032 1139 ee2f c8b0 02b4
00000130: 4296 ef35 2fb6 9533 fb31 b331 7434 0232
00000140: fbb2 3d2c 1734 522d 56b4 c92c 10a9 ebb2
00000150: 8030 0b30 dcaf 4db1 5934 ed2c a821 80b4
00000160: a6b5 31b3 c2ab 1222 3eb6 1b34 65ad 6536
00000170: fa2f 1dae 1db5 d0a6 012f 1a31 34b8 c3b0
00000180: 33b2 5bae f7ac f7ac 64ac eeb1 e931 bf34
00000190: b8b1 d535 bb2c 2830 9433 7125 2431 bba2
000001a0: e2b6 4c38 0935 b4a3 8234 0eb0 f22e 70b4
000001b0: 7622 16b0 8aa9 9bb2 4033 04ad d8b2 2fb5
000001c0: 4939 0e30 7230 5537 76ac be37 e8a6 402e
000001d0: 20b4 852d a120 4c34 22b3 07b1 5aaf 86ac
000001e0: e131 8bb5 0530 1934 56b3 7fb4 cab4 c31d
000001f0: 0928 adb0 7fb5 eeb2 4135 9eb2 6136 afb3
0.01223 0.4465 -0.1669 -0.2583 0.3298 0.04965 0.6274 0.3274
0.2487 0.329 0.11475 -0.05066 0.3408 0.107 -0.1664 0.06964
-0.2462 0.0968 -0.3123 -0.2372 -0.1481 0.2983 0.086 -0.1619
0.726 0.1831 0.2922 -0.233 -0.4607 -0.0813 0.3223 0.2336
0.0718 0.03415 -0.355 -0.03946 0.2866 -0.3938 -0.2275 0.3577
0.4905 -0.2135 0.004635 0.205 0.3384 -0.1393 -0.3406 0.345
0.10455 0.08203 -0.1976 0.2467 -0.6084 0.165 0.3247 0.5625
0.02203 0.01564 0.0825 0.1259 -0.382 0.0472 0.1178 0.1908
0.1526 -0.2257 -0.28 -0.3125 -0.488 -0.227 -0.03146 0.0652
0.05002 -0.06186 0.0982 0.03983 0.458 -0.515 0.4312 0.0854
-0.04803 -0.0645 0.2458 0.2024 -0.08875 -0.07574 0.2744 -0.06165
0.2385 -0.2041 0.105 -0.0587 0.11664 0.1065 0.589 -0.3179
-0.154 0.1252 0.01306 0.2096 -0.0563 -0.1118 0.0351 0.386
-0.3503 -0.1083 0.06015 0.561 -0.3083 0.0882 0.3123 -0.4595
-0.2866 0.3733 0.04352 -0.0269 0.1884 -0.4392 0.001105 0.389
-0.235 0.0641 0.226 -0.08136 -0.2466 0.509 0.459 0.04788
0.3127 -0.02734 -0.275 -0.209 0.2114 0.1293 0.303 -0.1084
0.4807 -0.464 -0.4084 0.1908 0.259 0.2329 -0.1531 0.3816
-0.0859 0.0306 -0.2852 0.2012 0.6333 0.1239 -0.1494 -0.2505
-0.001528 0.3708 -0.3865 0.2369 0.1869 0.1781 0.2783 0.1877
-0.2181 0.0662 0.2556 0.0831 -0.271 0.07477 -0.03955 -0.2162
0.1406 0.1263 -0.1228 -0.1656 0.2717 0.07697 0.01105 -0.2812
-0.353 -0.2247 -0.0606 0.011856 -0.3901 0.2566 -0.0843 0.3997
0.12463 -0.0955 -0.3196 -0.02661 0.10944 0.1594 -0.5254 -0.1488
-0.1937 -0.0993 -0.0776 -0.0776 -0.0686 -0.1853 0.1847 0.2966
-0.1787 0.3645 0.0739 0.1299 0.2368 0.02126 0.1606 -0.013145
-0.4302 0.537 0.3147 -0.015045 0.2817 -0.1267 0.1085 -0.2773
0.01262 -0.1277 -0.04327 -0.2064 0.2266 -0.07837 -0.2139 -0.324
0.6606 0.1267 0.1389 0.4583 -0.0697 0.484 -0.02698 0.09766
-0.2578 0.08624 0.00904 0.2686 -0.2229 -0.1571 -0.11487 -0.0707
0.1837 -0.3464 0.1256 0.256 -0.2292 -0.281 -0.2993 0.005627
0.03152 -0.1461 -0.3435 -0.2166 0.3284 -0.2068 0.3987 -0.2401

mlp_encoder.2.bias f2 [256]
00000000: fdb9 2bb8 0eb9 fa31 24b0 a2b0 80b1 0132
00000010: 512f 072e 0db3 eeb8 f3ac 73b0 3eb7 b0ac
00000020: ceae 3fb0 b5ae cc2f 0cb0 b42f 9632 54b8
00000030: b012 5a34 9cb8 062a a0b2 d2b4 26b5 fea8
00000040: 42b2 7034 64ac a0b1 2db4 ae2d 22b5 661d
00000050: e1b3 38b2 ef28 e8a4 9436 7230 0a31 eb1a
00000060: bf94 ed28 8fb5 f1b1 e8b2 f91f 3434 72b0
00000070: 19b5 f52d 6334 88b1 7db7 4ead 1630 48aa
00000080: 96ae 079d fdaf 27b1 64a9 a62c d62c dbb5
00000090: 1b2f fea9 1930 e033 a429 989f 73b9 cf20
000000a0: 2b2e 6b34 97aa b3b3 60b4 9ab4 78af 4d2b
000000b0: 8d28 312b 21b6 3bab 3cab 5eb4 3ca4 9333
000000c0: 41a5 7dae 6927 20b2 3cb1 a531 12ae c230
000000d0: 3924 9bb3 78b5 5ab9 6cb1 a3a8 b329 1398
000000e0: 3db3 b6b3 7f30 6f36 1532 7aac abb6 342a
000000f0: 682d 85b0 5eb5 73b4 2d2e aaaf ceaf 4fb3
00000100: 5faa 94b4 82b1 d32c 602a c235 332d 1db5
00000110: edb1 2a2d 132d f6b1 4b33 29b8 55b0 75a1
00000120: ac35 3f2c 91ae eeb9 b0b4 e334 2eb4 ca9d
00000130: d9b2 a6af 9eb6 3634 582d 7f32 71b1 1dab
00000140: 2537 5c34 612b e7a9 ebb4 78b9 56b8 6334
00000150: d5ac 02bd 32b0 03b5 f9ab fdb1 51b3 46b6
00000160: 81b6 91ad eab4 77ac 22b8 9bb4 78b9 b2b8
00000170: 6bb7 ccb4 0eba 03b0 e2ab b6b9 3eb5 7eb8
00000180: 90b4 2fb2 9eb0 7027 59b2 f7b2 91af 7ab5
00000190: 83b0 7eb4 49b1 6db7 ae34 91ae afb3 5eb9
000001a0: dcac 50b5 4434 ba34 03b8 c3b4 51b4 50b8
000001b0: 9f2d 46b4 c4b6 322f 9f35 1fb1 20b7 cb33
000001c0: bdb7 6fae edb8 16ad c3ba cdba 56b3 5d2e
000001d0: 15b6 03b6 88b8 68b5 69aa 58ad 59ad 3da2
000001e0: 3aac 11b5 94a8 a734 80b2 77b6 492b 34a3
000001f0: 96b6 95b5 a9b4 43b2 ebad 75ab 3b33 03b3
-0.7485 -0.521 -0.632 0.1868 -0.1294 -0.1448 -0.1719 0.1876
0.1143 0.0942 -0.2203 -0.616 -0.07733 -0.139 -0.4526 -0.07324
-0.1063 -0.1327 -0.1048 0.1218 -0.1265 0.12036 0.2058 -0.541
0.0008163 0.272 -0.576 0.04706 -0.207 -0.3013 -0.3218 -0.039
-0.1956 0.2773 -0.0686 -0.1758 -0.261 0.08875 -0.3208 0.005272
-0.2462 -0.1943 0.03854 -0.01917 0.4111 0.1389 0.1575 0.003378
-0.001159 0.03848 -0.3474 -0.1857 -0.2158 0.007786 0.2627 -0.1389
-0.3186 0.0931 0.2742 -0.1729 -0.468 -0.0829 0.1277 -0.04907
-0.1029 -0.00491 -0.1248 -0.161 -0.0421 0.07263 0.07556 -0.366
0.111 -0.0468 0.128 0.2461 0.04407 -0.007416 -0.681 0.00939
0.0964 0.2761 -0.05148 -0.2406 -0.2734 -0.2876 -0.1167 0.05704
0.03555 0.05618 -0.383 -0.0565 -0.05652 -0.273 -0.01654 0.2367
-0.02052 -0.1014 0.02895 -0.1914 -0.1636 0.1764 -0.09485 0.1487
0.0165 -0.2377 -0.3418 -0.669 -0.1694 -0.03622 0.04453 -0.00199
-0.2262 -0.241 0.1405 0.402 0.1901 -0.06995 -0.4167 0.04846
0.0845 -0.1412 -0.3354 -0.278 0.0965 -0.11975 -0.12195 -0.2284
-0.04977 -0.2861 -0.1721 0.0754 0.0498 0.3599 0.08124 -0.3196
-0.1852 0.0807 0.0793 -0.1863 0.2279 -0.52 -0.1354 -0.01066
0.3545 0.06635 -0.1026 -0.741 -0.293 0.3054 -0.2612 -0.005653
-0.214 -0.1195 -0.4136 0.2632 0.0835 0.203 -0.17 -0.05557
0.4465 0.2725 0.05765 -0.0461 -0.3074 -0.6836 -0.542 0.2742
-0.0755 -1.252 -0.1311 -0.3132 -0.0623 -0.1871 -0.2286 -0.392
-0.4065 -0.087 -0.3071 -0.06976 -0.5166 -0.2878 -0.6836 -0.587
-0.4636 -0.2998 -0.757 -0.1254 -0.06158 -0.714 -0.3276 -0.5615
-0.2852 -0.1932 -0.1443 0.02905 -0.1984 -0.2177 -0.1182 -0.3423
-0.141 -0.2808 -0.1652 -0.464 0.2925 -0.1026 -0.2401 -0.671
-0.0759 -0.332 0.2666 0.2954 -0.5015 -0.2976 -0.2698 -0.539
0.0878 -0.267 -0.4229 0.1124 0.3513 -0.16 -0.4453 0.2435
-0.4836 -0.1005 -0.6157 -0.07947 -0.845 -0.85 -0.2292 0.0994
-0.3801 -0.3757 -0.5664 -0.338 -0.05008 -0.0835 -0.08356 -0.012184
-0.06604 -0.3167 -0.03577 0.2908 -0.2031 -0.404 0.05692 -0.01407
-0.4116 -0.3489 -0.2913 -0.1957 -0.09247 -0.05826 0.226 -0.2191

mlp_encoder.4.weight f2 [256]
00000000: 373e 013e bb3d 713c ad3d ac3c 2e3b bd3b
00000010: 8d3c f63c 173d 7f3c dc39 503c 513d d03b
00000020: 3b3e f83a 423c 103b 0e3d 2a3c e93c c03d
00000030: 8d3d d43b f23b 0a3a 193c 3e3d 133b 9b3d
00000040: ef3a 493a 393d 433c 3d3c 6a3c 7b3c 893b
00000050: f33b c43b c739 0a3c 9c3c 433c 3e3a 723c
00000060: bf3a d63b 4c3c 383c e939 903d c73c df3c
00000070: f23d 783c 423c 183b ea3a 3e3c 343c 5e39
00000080: 293b 0f3d 9339 113c c23c 223c 613c eb3c
00000090: 093d 623d 673b e63c 693c c13b 733c 0f3d
000000a0: bf3c 5d3c 803c ea3a b53e 713c 463c a93b
000000b0: 4b3b 6c3c 9a3d 153c 9a38 e83a ae3c 453c
000000c0: bd3c 5f3a 603c 233c cc3c 583c ab3c 333a
000000d0: 493c 233c 9b3d 0c3e 9f3c 473b 893b d83a
000000e0: 983b b73d 963c 283c e93c 833b da3b a43c
000000f0: 0f3b 8c3c 8f3c 273a c43c 093c d23d f63b
00000100: ee3b 573b aa3b 363b 123c 533c 103d 8a3c
00000110: 803c 8c39 b03a 433b cf3c 093c fb3c 803d
00000120: 3b3b c73c 713b 4d3e 073c 3e3d 4a39 2e3b
00000130: 8a3c a63b 3a3c 343c ba3c 093a b93a 223c
00000140: fa3a 7a3a 2c3c 363e a93c b83d 933d e63c
00000150: 8f3d 2d3e 5e3a 9e3b 243c 043c 3c3c 183c
00000160: 023d 183d 013a 683d 693c a43c 203d 083e
00000170: 5f3c d63a e73c a13b cf3c 4f3c c23c 703c
00000180: 3f3d 933d a03c 153d 663c 243d 613c 023d
00000190: 4f3b 953c fe3d 633c fc3c 4b3b a93c 193e
000001a0: 3c3d 033e d53c 403c 333d fd3c 023b 4f3c
000001b0: 273b 563d 123c 373c 0e3c 3639 2d40 6a3d
000001c0: b13c 023d f93c 453a 323e 813e 973c 933b
000001d0: db3d c93b 5c3c c43c 3c3d 3f3c db3b b63c
000001e0: 713b ae3a 693c 623d bd3d 683a 713b 773b
000001f0: 613b a73c c83b 983a 583c 4939 4b3b b73d
1.554 1.501 1.433 1.11 1.419 1.168 0.8975 0.9673
1.138 1.24 1.272 1.124 0.7324 1.078 1.329 0.9766
1.558 0.871 1.064 0.883 1.264 1.041 1.228 1.4375
1.388 0.9785 0.993 0.755 1.024 1.311 0.8843 1.401
0.8667 0.7856 1.306 1.065 1.06 1.104 1.12 0.942
0.9937 0.9707 0.722 1.01 1.152 1.065 0.7803 1.111
0.8433 0.9795 1.074 1.055 0.739 1.391 1.194 1.218
1.486 1.117 1.064 0.8867 0.8643 1.061 1.051 0.671
0.895 1.265 0.697 1.017 1.189 1.033 1.095 1.2295
1.259 1.346 0.9253 1.225 1.103 0.969 1.112 1.265
1.187 1.091 1.125 0.8643 1.677 1.11 1.068 0.9575
0.9116 1.105 1.4 1.0205 0.575 0.8633 1.17 1.067
1.185 0.7964 1.094 1.034 1.199 1.086 1.167 0.775
1.071 1.034 1.401 1.512 1.155 0.9097 0.942 0.8555
0.949 1.429 1.146 1.039 1.228 0.939 0.9814 1.16
0.8823 1.137 1.14 0.769 1.191 1.009 1.455 0.995
0.991 0.9175 0.958 0.9014 1.018 1.081 1.266 1.135
1.125 0.6934 0.836 0.9077 1.202 1.009 1.245 1.375
0.904 1.194 0.93 1.575 1.007 1.311 0.661 0.8975
1.135 0.956 1.057 1.051 1.182 0.7544 0.8403 1.033
0.872 0.8096 1.043 1.553 1.165 1.43 1.394 1.225
1.39 1.544 0.796 0.952 1.035 1.004 1.059 1.023
1.252 1.273 0.7505 1.352 1.103 1.16 1.281 1.508
1.093 0.8545 1.226 0.9536 1.202 1.077 1.189 1.109
1.312 1.394 1.156 1.2705 1.1 1.285 1.095 1.252
0.9136 1.1455 1.498 1.097 1.246 0.9116 1.165 1.524
1.309 1.503 1.208 1.0625 1.3 1.247 0.876 1.077
0.894 1.334 1.018 1.054 1.014 0.6514 2.088 1.354
1.173 1.252 1.243 0.7837 1.549 1.626 1.147 0.947
1.464 0.973 1.09 1.191 1.309 1.062 0.982 1.178
0.93 0.835 1.103 1.346 1.435 0.801 0.93 0.933
0.9224 1.163 0.9727 0.824 1.086 0.6606 0.9116 1.429

mlp_encoder.4.bias f2 [256]
00000000: f8b8 8eb8 27b9 8a2f fcb2 d02c 7f2a 4a32
00000010: a437 2aae 23b0 0db5 c632 1829 8cb5 8731
00000020: 27b3 c7b1 d82f 6130 efb3 ef36 b234 d9b8
00000030: 3e35 5b2f fab4 3233 562d a7b2 9b2c 8836
00000040: e035 5b37 1530 47b0 8233 2631 c3ad 4532
00000050: fe2f df30 d02c ada7 c337 5a2f bf35 ccac
00000060: 6e30 5829 69a9 d432 3a32 95ad 3634 fca9
00000070: 8cac 9eb2 af33 fa35 82ac 31af 8031 102a
00000080: e431 85b4 4933 e2b0 0030 72aa dc1d 7eb4
00000090: aaac d833 e432 a89f 3330 eb14 ffb0 4532
000000a0: 0a2e 7d32 21b0 f42d fbb5 f8b0 77b0 9728
000000b0: 2e36 972d 93a5 3aa6 44ac 1b30 2134 9032
000000c0: b633 1134 ad2d 20b3 fbb1 9834 92af e435
000000d0: 54b2 b1a2 efb2 b8b9 828f 5d33 8733 bd36
000000e0: 6137 a030 bf30 5f2f 9eac 6db0 c82a deac
000000f0: 6e35 5e35 4eb4 5432 372c e32e 3d32 7eac
00000100: 38b6 4ba7 92ae 1131 eb2a f735 a932 5e2f
00000110: 0330 7031 d830 1826 d431 1cab 3e20 2735
00000120: 1238 232e 85ad afb9 ce30 33ab db33 1d30
00000130: 7d1e 4933 e1b5 6e31 5720 9635 a8a6 9134
00000140: 1834 5e38 50a8 0a29 ffae 55b6 d9b7 f7ae
00000150: 35b4 38b8 e6a7 55ae 5db0 2934 75ad 5eb3
00000160: 3930 88ad 892d e8a9 d0b1 2329 01b7 01b9
00000170: 69b4 ee31 f3b4 4628 1a34 8cb0 27b4 d7b2
00000180: f0b2 28b8 0523 a2a9 0133 9db5 4035 6131
00000190: f830 baa3 90af 99b3 e334 7c2e 61b3 3fb6
000001a0: 1730 c1b4 ed35 ee35 2ab3 deb5 612c 7ba8
000001b0: 3a35 3c30 231b 0f32 ac33 b234 a6b8 3c38
000001c0: efb2 05ab 6fb7 c130 05b9 f6b8 d4b0 2d2a
000001d0: 7cb4 3aac 26b3 c2b5 cb2c d32f ab2f 7423
000001e0: 5eac 8d32 1796 8534 e1a7 7d1f 1537 262e
000001f0: b61c 4eb0 5fab 2e32 132d 232a 8ba4 d22c
-0.621 -0.5693 -0.644 0.1178 -0.2183 0.0752 0.05075 0.1965
0.4775 -0.0963 -0.1293 -0.3157 0.2117 0.0398 -0.3467 0.1727
-0.2235 -0.1805 0.12256 0.1368 -0.2479 0.4333 0.2935 -0.606
0.3276 0.1149 -0.311 0.2249 0.0834 -0.2079 0.07196 0.4082
0.3672 0.4597 0.1276 -0.1337 0.2346 0.1609 -0.09 0.1959
0.1249 0.1522 0.0752 -0.02998 0.485 0.11487 0.3591 -0.07495
0.1384 0.04175 -0.04227 0.2134 0.1946 -0.0872 0.2632 -0.04675
-0.07104 -0.2068 0.2401 0.3735 -0.07043 -0.11237 0.1719 0.04736
0.1841 -0.2825 0.2277 -0.1526 0.125 -0.05035 0.005722 -0.2808
-0.0729 0.2451 0.2153 -0.007477 0.1312 0.001201 -0.1561 0.1959
0.09436 0.2028 -0.129 0.093 -0.3738 -0.1553 -0.1395 0.03586
0.3862 0.08734 -0.02177 -0.02432 -0.06665 0.1283 0.258 0.2051
0.241 0.2542 0.0887 -0.2227 -0.1869 0.287 -0.1183 0.3682
-0.1978 -0.01307 -0.2167 -0.715 -0.0004582 0.2301 0.2352 0.4211
0.4612 0.1445 0.1483 0.1152 -0.07214 -0.1383 0.05298 -0.07605
0.3394 0.3354 -0.269 0.1978 0.06586 0.1076 0.195 -0.0702
-0.3887 -0.02849 -0.10266 0.1583 0.05405 0.3728 0.2081 0.1151
0.1254 0.1699 0.1514 0.0238 0.1821 -0.05554 0.008286 0.322
0.509 0.0959 -0.08624 -0.7104 0.1501 -0.05624 0.2455 0.1285
0.006336 0.2277 -0.3674 0.1697 0.00848 0.349 -0.026 0.2854
0.2559 0.546 -0.0337 0.03937 -0.1093 -0.3958 -0.4905 -0.1088
-0.263 -0.5273 -0.03085 -0.09894 -0.1364 0.26 -0.08527 -0.2302
0.132 -0.0864 0.0865 -0.04614 -0.1816 0.04013 -0.4377 -0.6255
-0.2756 0.1853 -0.3093 0.0334 0.2563 -0.1421 -0.2595 -0.2137
-0.2168 -0.5195 0.01371 -0.044 0.2189 -0.3508 0.3281 0.1681
0.1553 -0.01509 -0.11816 -0.2374 0.3054 0.1013 -0.2306 -0.3904
0.1278 -0.297 0.3704 0.3706 -0.2239 -0.3667 0.0684 -0.035
0.3267 0.1323 0.003485 0.1893 0.2397 0.2935 -0.581 0.5293
-0.2167 -0.05484 -0.4646 0.1486 -0.6274 -0.62 -0.1509 0.04825
-0.2803 -0.06604 -0.2234 -0.3599 0.0749 0.12225 0.1198 0.01456
-0.06824 0.2047 -0.001487 0.2825 -0.03078 0.007313 0.4426 0.09607
0.0046 -0.1345 -0.0576 0.1931 0.0793 0.04794 -0.01775 0.0753

mlp_encoder.5.weight f2 [128, 256]
00000000: 09b3 45b3 0bb4 80b6 4433 05af 1ab9 7eb5
00000010: ccb1 232f 89b5 052b d927 6d34 5fb4 e3b5
00000020: 782f 6c32 4c36 5732 d736 7d29 17b8 33b1
00000030: 54ae 911e 9b2a 2b38 93b5 2727 3ab4 0c35
00000040: 7136 dd31 3138 8fa5 74ad c92d 4733 80b5
00000050: 9b35 64b4 88af 1829 8b31 08b4 24b4 47b6
00000060: 7738 9430 f32a 3fb5 18b0 1aad 0db3 f4b6
00000070: db39 56b3 80aa b837 33b5 bb32 91b0 54b1
00000080: 5d36 99b2 7d34 cf31 be34 53a4 3fb8 7bb0
00000090: 92b3 2637 b134 c2ba 15ae ddb8 3825 9435
000000a0: 7825 53b1 6d30 7cb1 da31 bda5 2632 1bb5
000000b0: 7f31 2e38 3f36 cbaa 04aa a8b6 e934 55b8
000000c0: f6af 5d27 7136 53ac 5e9d d12a 9da0 21a6
000000d0: dbb6 44b5 8b35 3fb1 5937 6d2e 7833 e831
000000e0: 7834 2539 06b0 8532 fc31 ceb6 d3b7 ea18
000000f0: f22e 1038 8e2c bd35 b8ba e523 24b2 d531
00000100: 2c34 062f 3cb6 dcb4 0daa e335 0e34 453a
00000110: c6b5 392f dc34 6d9c 19b5 072a d033 1f33
00000120: 1c31 c5b0 3eb6 07b1 ae36 b9ba 22b2 fa33
00000130: 1ea9 d8aa c432 9433 2aac b6b3 a2b3 3e26
00000140: c6ac 39b6 07b9 d331 edb1 90ab 2ab4 64b8
00000150: adaf 5eae b7aa 43b8 da35 6633 54b1 adb1
00000160: 332b 0b28 3ab2 11b6 f3b2 ddb6 b5b3 85b3
00000170: 7e23 802f 71a8 d4b1 b733 c838 e6b4 e7b7
00000180: 09ae 98b3 7933 5927 a431 31aa e730 cd36
00000190: 8eb2 b933 cd35 e8ac eeaf 1d37 271c 68b5
000001a0: 9e34 2135 5ab4 44ae 3ab4 81a5 d231 0d36
000001b0: b8a8 3136 b3b6 61ac 082c c037 cfac 8d26
000001c0: 3e25 33ae d4b3 e2af 222c f7af 29b3 53b5
000001d0: 36b0 8bb1 b525 62a4 772a 59af 67a0 4ab1
000001e0: 3aad 9e2d b1a2 d1b1 2037 8d2e daad 02aa
000001f0: 7d30 4f38 2e32 2432 40af a5b0 4eb6 8e35
-0.2198 -0.2272 -0.2527 -0.4062 0.227 -0.1097 -0.6377 -0.3433
-0.1812 0.1115 -0.346 0.05484 0.03065 0.2766 -0.2732 -0.368
0.1167 0.2007 0.3936 0.1981 0.4275 0.04288 -0.511 -0.1625
-0.0989 0.006413 0.0516 0.521 -0.3484 0.02794 -0.2642 0.3154
0.4026 0.1832 0.524 -0.02171 -0.0852 0.0904 0.2274 -0.3438
0.3503 -0.2744 -0.1177 0.0398 0.1732 -0.252 -0.2588 -0.3923
0.558 0.1431 0.0543 -0.328 -0.1279 -0.0797 -0.2203 -0.4346
0.732 -0.2292 -0.05078 0.4824 -0.325 0.2103 -0.1427 -0.1665
0.3977 -0.2062 0.2805 0.1815 0.2964 -0.01689 -0.531 -0.14
-0.2366 0.4468 0.2932 -0.8447 -0.09503 -0.608 0.02039 0.3486
0.02136 -0.1664 0.1383 -0.1714 0.1829 -0.02242 0.1921 -0.319
0.1718 0.5225 0.3904 -0.05307 -0.047 -0.416 0.307 -0.5415
-0.1244 0.02876 0.4026 -0.06757 -0.00524 0.05325 -0.00901 -0.02394
-0.4285 -0.329 0.3464 -0.164 0.4592 0.1004 0.2334 0.1846
0.2793 0.643 -0.1257 0.2037 0.187 -0.4253 -0.489 0.0024
0.1085 0.508 0.07117 0.3586 -0.84 0.01542 -0.1919 0.1823
0.2607 0.10974 -0.3896 -0.3037 -0.04727 0.368 0.2534 0.7837
-0.3608 0.11285 0.3037 -0.004322 -0.3186 0.0471 0.2441 0.2225
0.1597 -0.149 -0.3901 -0.1571 0.4175 -0.8403 -0.1917 0.2493
-0.03998 -0.05347 0.2114 0.2368 -0.06506 -0.241 -0.2385 0.02438
-0.0746 -0.389 -0.6284 0.182 -0.1852 -0.05908 -0.2603 -0.549
-0.11993 -0.0995 -0.05246 -0.5327 0.3657 0.2312 -0.1665 -0.1774
0.05624 0.0316 -0.1946 -0.3792 -0.2172 -0.429 -0.2408 -0.235
0.01463 0.1172 -0.0347 -0.1821 0.2411 0.5977 -0.3062 -0.494
-0.0943 -0.2373 0.2335 0.0287 0.1763 -0.04837 0.1532 0.425
-0.2048 0.2413 0.3625 -0.07666 -0.1239 0.4446 0.004055 -0.338
0.2886 0.3206 -0.272 -0.0979 -0.2642 -0.0215 0.1819 0.3782
-0.03687 0.387 -0.4187 -0.0684 0.063 0.4844 -0.07513 0.02559
0.02048 -0.09686 -0.2446 -0.12317 0.0646 -0.12445 -0.2238 -0.3328
-0.1316 -0.1732 0.0223 -0.01712 0.0505 -0.1148 -0.0086 -0.1653
-0.08167 0.08777 -0.01307 -0.1818 0.4453 0.10236 -0.09143 -0.04694
0.1403 0.5386 0.1931 0.1919 -0.1133 -0.1451 -0.394 0.3472

mlp_encoder.5.bias f2 [128]
00000000: 3a30 44b5 56b5 c8b1 54b4 45b2 30b7 6bb8
00000010: 1cb6 14b6 66b1 f4b0 9fb1 50b3 1ba9 f6b3
00000020: 0bb8 13b6 ebb4 b42a 7eb7 1bb6 bbb5 1fb3
00000030: 6cb0 9fb0 4ab1 44b4 1bb2 c8aa efb0 e1ac
00000040: 93b1 37b7 3db3 74ad 6cb8 d0b3 bab2 ccb4
00000050: edb1 e426 0eb8 3eb4 99b1 5eb3 c0b4 00b0
00000060: a6a8 0eae b934 e53a 45b6 04af 6fb2 f9a7
00000070: 56b0 57b0 65b2 ffaa 37b8 c5b0 c4b1 8ab5
00000080: 78ae 39b8 4a29 73ae 76a6 90b5 47ac 71ab
00000090: cb24 5ab5 6db2 24b5 47ba 08b5 c0ae b2b4
000000a0: d3b6 85b4 d1b0 60ae 2ab5 ceae 5dab f7ae
000000b0: beb1 5fb3 48b4 53a9 16b8 42a9 75b6 bab2
000000c0: 4ab0 6ab1 ffb4 b2b2 6c1f 0cb1 5ab8 01a8
000000d0: cfad 4822 d6ac daa9 6cab d2b2 8ca7 69b8
000000e0: beb5 2aad 33b3 77b4 77b3 5ba7 a6b5 d1b2
000000f0: 92ad 7eb6 5ab2 beb8 553c 27b5 e594 0bb1
0.1321 -0.329 -0.3335 -0.1807 -0.2705 -0.1959 -0.4492 -0.5522
-0.3818 -0.38 -0.1687 -0.1548 -0.1757 -0.2285 -0.0399 -0.2488
-0.5054 -0.3796 -0.3074 0.05237 -0.4683 -0.3816 -0.3582 -0.2225
-0.1382 -0.1444 -0.1653 -0.2666 -0.1908 -0.05298 -0.1542 -0.07623
-0.1742 -0.451 -0.2262 -0.0852 -0.5527 -0.2441 -0.2102 -0.2998
-0.1852 0.02692 -0.507 -0.2651 -0.1749 -0.2302 -0.2969 -0.125
-0.03632 -0.0946 0.2952 0.862 -0.3918 -0.1096 -0.201 -0.03114
-0.1355 -0.1356 -0.1998 -0.05466 -0.527 -0.149 -0.1802 -0.3462
-0.1011 -0.528 0.04132 -0.10077 -0.02524 -0.3477 -0.06683 -0.05814
0.01872 -0.3345 -0.2008 -0.3213 -0.7847 -0.3145 -0.10547 -0.2935
-0.4265 -0.2825 -0.1505 -0.0996 -0.3228 -0.1063 -0.05753 -0.1088
-0.1794 -0.2303 -0.2676 -0.0416 -0.5107 -0.04108 -0.4036 -0.2102
-0.134 -0.1692 -0.3123 -0.2092 0.007248 -0.1577 -0.544 -0.03128
-0.09076 0.01227 -0.07556 -0.04572 -0.05798 -0.2131 -0.02948 -0.5513
-0.359 -0.0807 -0.225 -0.279 -0.2333 -0.02873 -0.353 -0.213
-0.08704 -0.4058 -0.1985 -0.593 1.083 -0.322 -0.001195 -0.1576

mlp_encoder.7.weight f2 [128]
00000000: 7a36 4038 8439 0b3a 3236 b336 a338 0939
00000010: 4d38 3438 4b34 1538 f936 5f38 0738 e435
00000020: 8f39 1639 c236 8237 a735 4235 8b36 e938
00000030: be38 b838 cb33 8638 3237 2938 6237 ea37
00000040: 6c37 6238 3a32 2b36 ba39 e637 8339 7638
00000050: ec37 853a 9138 9d36 8037 4d39 2c37 3b39
00000060: 7f38 cc33 2331 662c dd36 fe38 eb38 c531
00000070: f537 1837 1338 3d38 0536 b533 5c35 0736
00000080: c238 1d38 e735 f235 2e39 e236 3a36 c238
00000090: 8f36 9337 8738 4039 3239 0838 d438 a338
000000a0: 9837 e632 0837 5139 6637 a935 0938 4237
000000b0: 3538 6936 9a37 5c37 d738 0c38 3f39 7234
000000c0: 0235 a531 c738 d739 a637 e038 2f37 7938
000000d0: 7735 6d38 ad37 2937 c838 5937 8938 2038
000000e0: d838 5938 5234 3136 7f38 f236 4439 f337
000000f0: 8937 3c38 2839 4039 8132 2e39 cb38 0437
0.4048 0.5312 0.6895 0.7554 0.3872 0.4187 0.5796 0.6294
0.5376 0.5254 0.2683 0.5103 0.4358 0.5464 0.5034 0.3682
0.695 0.6357 0.4224 0.4692 0.3533 0.3286 0.409 0.614
0.593 0.59 0.2435 0.5654 0.4497 0.52 0.4614 0.4946
0.4639 0.548 0.1946 0.3855 0.716 0.4937 0.689 0.5576
0.495 0.815 0.571 0.4133 0.4688 0.6626 0.4482 0.654
0.562 0.2437 0.1605 0.0687 0.429 0.624 0.6147 0.1803
0.4973 0.4434 0.5093 0.53 0.3762 0.2408 0.335 0.3767
0.5947 0.514 0.369 0.3716 0.6475 0.4302 0.3892 0.5947
0.41 0.4734 0.566 0.6562 0.6494 0.504 0.6035 0.5796
0.4746 0.2156 0.4395 0.6646 0.4624 0.3538 0.5044 0.4536
0.526 0.4006 0.475 0.46 0.605 0.506 0.656 0.2778
0.313 0.1764 0.597 0.73 0.478 0.6094 0.449 0.559
0.3416 0.553 0.4797 0.4475 0.5977 0.4592 0.567 0.5156
0.6055 0.5435 0.27 0.387 0.562 0.434 0.658 0.4968
0.471 0.5293 0.6445 0.6562 0.2032 0.6475 0.599 0.4385

mlp_encoder.7.bias f2 [128]
00000000: cda9 ce2d b62f a72f 7d2c 1a2d 572e 032f
00000010: eb2d d12d 8029 d32c 162d 012e 872d fd2b
00000020: ca2f 242f a52c 58ad 872b 8d2b 022d b42e
00000030: f52e 442e 1629 a02e ff29 5ead c82a 1ba0
00000040: 342d eb2d 9227 422c f42f 8c2d 932f 442e
00000050: 9f2c 7fb1 4a2e 332c 512c 4b2f 282d 3eae
00000060: 68ae a127 ea9e bdb9 242d 942e 48a5 5826
00000070: 7f2d e92c 932d eb22 1c2c 8b27 382b eb2b
00000080: a62a aa2d 69ae f0ad e9b1 0a2d ca2b 32ab
00000090: 6a23 212d 602e 702f 3a2f a22d 312e c02e
000000a0: 472d 9d28 4119 1b2f 352d 712b 3c2c 29a8
000000b0: 3f2d 432b 182d 622c c52e 492d 3b2f 562a
000000c0: 332b 7b25 c62e c12c ecb0 c82e ed2c c2b1
000000d0: 4a2b 3daf 502d 592c 2b2f 022d b426 c92d
000000e0: ec2e 8ab2 a828 812b 442d ebaf 442f 1b2d
000000f0: 8028 ed2d 752d 562f 99b0 f82c f92e f5b1
-0.04532 0.0907 0.1205 0.11957 0.0701 0.0797 0.09906 0.10956
0.09247 0.0909 0.04297 0.0754 0.07947 0.0938 0.08636 0.0624
0.1217 0.1116 0.0726 -0.0835 0.0588 0.059 0.07825 0.10474
0.1087 0.0979 0.03973 0.1035 0.04684 -0.08386 0.05298 -0.00802
0.0813 0.09247 0.02957 0.0665 0.12427 0.0867 0.11835 0.0979
0.0722 -0.1718 0.09827 0.0656 0.06744 0.11395 0.08057 -0.09753
-0.1001 0.0298 -0.006752 -0.7173 0.0803 0.1028 -0.02063 0.02478
0.0859 0.0767 0.0871 0.01351 0.0642 0.02946 0.0564 0.06186
0.05194 0.0885 -0.10016 -0.0928 -0.1847 0.07874 0.06085 -0.0562
0.01448 0.08014 0.0996 0.1162 0.1129 0.088 0.09674 0.10547
0.08246 0.03604 0.002565 0.111 0.08136 0.05814 0.06616 -0.0325
0.082 0.05673 0.0796 0.0685 0.1058 0.0826 0.113 0.0495
0.05624 0.02141 0.10583 0.0743 -0.1538 0.10596 0.07697 -0.1799
0.05695 -0.1131 0.083 0.06793 0.112 0.07825 0.02618 0.0904
0.10815 -0.2043 0.03638 0.05862 0.0823 -0.1237 0.1135 0.0798
0.03516 0.0926 0.08527 0.1146 -0.1437 0.07764 0.10895 -0.1862

mlp_encoder.8.weight f2 [23, 128]
00000000: cba6 16a6 a534 4db2 d79f 1c33 082b 7533
00000010: cbb1 362f 522c 61b2 81ae b5ae faae 20b2
00000020: 0531 e531 e830 beb0 2cb2 872b 152c 6c2c
00000030: d02d b2ac b82b 8fa9 bdaf 5d30 7e2e cba8
00000040: dc2e 6733 1728 e134 a3ab 0da9 3932 1fb0
00000050: 6499 aa17 3f32 b42c 29af e831 cf33 ef33
00000060: 4b30 dd2c 1f2c 1328 49ad 1aad 7fb2 1a2e
00000070: 9234 aeb2 3e2a bca5 3e2c 2c28 85a9 702e
00000080: 261b ed30 c6b1 4fb0 eda1 f32a 87a9 7330
00000090: d0b1 d424 97b1 6dab 462f 4528 8bb1 5424
000000a0: 4aac 9c22 d8a9 9733 f3ac 6534 962f b0a0
000000b0: fe2b 6f2e 9ead 93ab f824 79af cd30 9e2d
000000c0: a030 c7ab 6eae bfab 3bae ccb0 7829 4c2d
000000d0: c0b3 8324 87a1 03af aca8 1730 10ae 8c28
000000e0: 9e2e 1633 fcb0 ae33 e3b1 32b4 5823 8c2a
000000f0: d4b0 76a9 702f cc31 c221 7d30 ecaf 8ba8
00000100: de30 0f2a 3a2d 92b0 f69d ae35 0eae 10ae
00000110: 252c 472d 19a8 4731 1daf daac 35b3 9c2b
00000120: d3ae 90a1 a0a4 92b0 3ea7 2e31 6830 00ac
00000130: b2b0 322d 462c 43a9 a4a6 c82c 3f2c f032
00000140: ba2f 32b1 f8af 1f30 53a5 8b2a 3631 29ac
00000150: 9eac 11ad dfab 26af cc2c b62e d933 4da5
00000160: 1caa 879c 11a7 5ba6 4b2d 91b2 4e34 88aa
00000170: 9415 4b26 d025 f22d 8e28 02a9 f3a6 6c2c
00000180: 63a9 f628 891c 3328 f729 2030 b829 7da3
00000190: 102b 84b0 4fae 0d21 1b2d 19a2 2caf 6626
000001a0: d52e 8727 3ab2 3128 f5a1 f82e 73b0 daaa
000001b0: 47b5 9fb1 2f30 0a2c 9b9a 852f 29ac 812e
000001c0: ec30 552e ab18 a0a2 3e2c 0332 5c1f 78ac
000001d0: 5a9c ee29 772a 15ae 2da9 12a9 5125 b9b0
000001e0: e92d ce2c f22c 9ab0 4135 1a24 f0b0 a42c
000001f0: 5430 30ad b1af 9fa8 5f9f 88ae fdac 7db0
-0.02654 -0.02377 0.2903 -0.1969 -0.007656 0.2222 0.05493 0.233
-0.181 0.1127 0.0675 -0.1993 -0.1016 -0.1048 -0.109 -0.1914
0.1569 0.1842 0.1533 -0.1482 -0.1929 0.0588 0.0638 0.0691
0.0908 -0.07336 0.0603 -0.04343 -0.1209 0.1364 0.10144 -0.03745
0.1072 0.2313 0.03195 0.305 -0.05966 -0.03946 0.1945 -0.1288
-0.002632 0.001871 0.1952 0.0735 -0.1119 0.1846 0.244 0.2479
0.1342 0.076 0.0644 0.03183 -0.0826 -0.0797 -0.203 0.09534
0.2856 -0.2087 0.04877 -0.0224 0.0663 0.0326 -0.04312 0.1006
0.00349 0.1539 -0.1804 -0.1346 -0.01157 0.0543 -0.04318 0.139
-0.1816 0.01886 -0.1747 -0.058 0.11365 0.03336 -0.1732 0.0169
-0.067 0.01291 -0.04565 0.2372 -0.07733 0.2747 0.1185 -0.009155
0.06244 0.1005 -0.08777 -0.05917 0.01941 -0.11676 0.15 0.08777
0.1445 -0.06076 -0.10046 -0.06052 -0.09735 -0.1499 0.04272 0.08276
-0.2422 0.01762 -0.010796 -0.10956 -0.0365 0.1278 -0.0947 0.03552
0.1034 0.2214 -0.1558 0.24 -0.184 -0.2622 0.01434 0.05115
-0.1509 -0.04266 0.1162 0.1812 0.011246 0.1403 -0.1238 -0.0355
0.1521 0.04733 0.08167 -0.1428 -0.00582 0.355 -0.0946 -0.0947
0.06476 0.08246 -0.032 0.1649 -0.11115 -0.0758 -0.2252 0.05945
-0.1066 -0.010864 -0.01807 -0.1428 -0.02829 0.1619 0.1377 -0.0625
-0.1467 0.0812 0.0668 -0.0411 -0.02594 0.0747 0.06635 0.2168
0.1207 -0.1624 -0.1245 0.1288 -0.0208 0.05112 0.1628 -0.065
-0.07214 -0.07916 -0.0615 -0.1117 0.07495 0.10486 0.2452 -0.0207
-0.04773 -0.00442 -0.0276 -0.02483 0.0827 -0.2052 0.269 -0.05103
0.001362 0.02458 0.0227 0.0929 0.03558 -0.03912 -0.02715 0.0691
-0.04208 0.03876 0.00443 0.0328 0.0466 0.1289 0.04468 -0.014626
0.05518 -0.1411 -0.0986 0.009865 0.0798 -0.01191 -0.11206 0.025
0.10675 0.0294 -0.1946 0.03275 -0.011635 0.1089 -0.139 -0.05353
-0.3298 -0.1757 0.1307 0.0631 -0.003225 0.1175 -0.065 0.1016
0.1538 0.09894 0.00228 -0.01294 0.0663 0.1879 0.007187 -0.0698
-0.00425 0.04633 0.0505 -0.09503 -0.04044 -0.0396 0.02077 -0.1476
0.09235 0.0751 0.0773 -0.1438 0.3284 0.01602 -0.1543 0.0725
0.1353 -0.08105 -0.1202 -0.0361 -0.0072 -0.10205 -0.07794 -0.1403

mlp_encoder.8.bias f2 [23]
00000000: bfac 4a29 bea8 0b23 7128 4d24 251f a52b
00000010: 46a7 d91c 0829 c326 8d24 071f 7524 64a3
00000020: c22c eba6 05a8 7d28 852c 301f d424
-0.07416 0.04132 -0.03705 0.013756 0.0347 0.0168 0.006977 0.05972
-0.02841 0.004734 0.0393 0.02641 0.01778 0.006863 0.01741 -0.014435
0.07434 -0.02702 -0.0314 0.03506 0.0706 0.00702 0.01886

actor.w0 f2 [4, 62, 128]
00000000: 47ad 972e 8daf 6f30 2a28 efb3 d1b1 9c2f
00000010: 242e 4b2f d529 1833 58a7 d9b0 c5a8 4fae
00000020: a0ae 672e 4aad 79b1 43b3 1e25 42ae 0533
00000030: d1a5 4fa6 0ca8 442c 0a2e 1029 2a2d 40a4
00000040: c32e c4af e830 e2b1 0830 82b0 4caf 4a26
00000050: 0f31 dd2d efab adb1 2c20 872c 59b1 fd23
00000060: c6a5 6c25 1bb1 4424 6f2a b019 fd2f 18aa
00000070: e02b 58a8 9fb0 4631 5ca9 8805 4daf b029
00000080: 23af 3ba8 0aad 3e1f 5530 5f2c 37aa 0732
00000090: 7ba2 3eaa ef2e 76ab 35a1 ea30 6f2b 4ea7
000000a0: 5aae 9fae 8f33 0630 d5a1 57aa 48b1 62ac
000000b0: 3b2c b6b2 97ab e12b af29 cd2b c62b 762e
000000c0: cfa8 862e 1c2a 6aac 63a8 682e e924 a1ae
000000d0: 35af f431 26ac acaa ce28 be20 daac 91ae
000000e0: ffae 3d24 3531 aa2c 252f bdb3 092a 2d2a
000000f0: bb20 7226 b4a4 7e2e 6c2a 522f 682d 9ba6
00000100: 38b3 2232 46a5 d2b0 aa27 0aad e828 6ea9
00000110: 542d 1332 eeac 71a5 bf2c 9ea5 42ae 38ad
00000120: 762b a5ac 05a1 8f2b d92d 53ad 1a32 5a2e
00000130: 64ae f1ad 9130 d52e d92c fda1 ae24 e331
00000140: 1527 ba31 d72a 4eb0 7e2f 772c 9d31 3a31
00000150: 962e c932 952e 39ad e1ab 7034 6b9a e82c
00000160: 712c 7625 ecaa c52d a72d f9ab f0ad 9eb2
00000170: 4630 2328 3c33 7a28 6cb2 8325 d4a7 d3ad
00000180: 16ac 8c20 b22a 92a6 2eb0 2aa2 50ac 0fac
00000190: d7ae 1e2b 73ab 959c c2a5 5731 1f29 44b1
000001a0: 7524 b8ad 8833 3bae dc1e 39b0 daad 63ad
000001b0: b2ad 1c9d 7327 30ac 5f32 9baf f0ac bf2b
000001c0: 422c 6c30 33ae f2a3 41ad a821 582a e7b3
000001d0: 86ae f730 4e10 089c 6ead d92c b11e a52f
000001e0: 19a1 c81e 8b2c 2527 a630 43b1 ed26 362d
000001f0: 55a8 8cac 13ae 1d2a 1930 72a5 6e9f 4c30
-0.08246 0.10297 -0.118 0.1385 0.03253 -0.2479 -0.1818 0.1189
0.09595 0.11395 0.04556 0.2217 -0.02869 -0.1515 -0.03726 -0.0986
-0.1035 0.10004 -0.08264 -0.171 -0.2269 0.01999 -0.0978 0.2194
-0.02272 -0.02464 -0.03162 0.06665 0.09436 0.03955 0.0807 -0.0166
0.10565 -0.12134 0.1533 -0.1838 0.126 -0.1409 -0.114 0.02457
0.1581 0.0916 -0.06198 -0.1774 0.00815 0.07074 -0.1671 0.0156
-0.02255 0.02118 -0.1595 0.01666 0.05026 0.002777 0.1248 -0.0476
0.06152 -0.03394 -0.1444 0.1648 -0.04187 8.44e-05 -0.1141 0.04443
-0.1115 -0.03305 -0.07874 0.007072 0.1354 0.0683 -0.04855 0.1884
-0.01266 -0.04877 0.10834 -0.0583 -0.01017 0.1536 0.05807 -0.02853
-0.09924 -0.10345 0.2362 0.1257 -0.01139 -0.04953 -0.165 -0.0685
0.0661 -0.2097 -0.0593 0.06155 0.0444 0.06094 0.06073 0.10095
-0.03757 0.1019 0.04773 -0.069 -0.03427 0.1001 0.01918 -0.1036
-0.1126 0.186 -0.0648 -0.05212 0.03754 0.00926 -0.0758 -0.1026
-0.1093 0.01656 0.1627 0.0729 0.11163 -0.2418 0.04715 0.04825
0.00924 0.02518 -0.01837 0.10144 0.05017 0.1144 0.0845 -0.0258
-0.2256 0.1917 -0.0206 -0.1506 0.02994 -0.07874 0.03833 -0.04242
0.08325 0.1898 -0.077 -0.02126 0.07416 -0.02194 -0.0978 -0.08154
0.0583 -0.0726 -0.0098 0.05905 0.0914 -0.0832 0.1907 0.09924
-0.09985 -0.09283 0.1427 0.10675 0.07574 -0.011696 0.01828 0.184
0.02766 0.179 0.05344 -0.1345 0.11707 0.06976 0.1754 0.1633
0.1029 0.212 0.10284 -0.0816 -0.06155 0.2773 -0.003134 0.07666
0.0694 0.02133 -0.05408 0.09015 0.0883 -0.0623 -0.0928 -0.2068
0.1335 0.03232 0.2261 0.03497 -0.2007 0.02153 -0.03058 -0.091
-0.06384 0.00888 0.0523 -0.02567 -0.1306 -0.01204 -0.0674 -0.0634
-0.1069 0.0556 -0.0582 -0.004475 -0.02249 0.1669 0.04 -0.1646
0.01741 -0.08936 0.2354 -0.09735 0.0067 -0.132 -0.09143 -0.08417
-0.089 -0.00499 0.0291 -0.0654 0.1991 -0.11884 -0.07715 0.06052
0.0665 0.1382 -0.09686 -0.01552 -0.0821 0.01105 0.04956 -0.247
-0.1019 0.1552 0.0005255 -0.003937 -0.08484 0.07574 0.006535 0.11945
-0.00996 0.006622 0.071 0.02791 0.1453 -0.1644 0.02705 0.0814
-0.03384 -0.07104 -0.0949 0.04776 0.128 -0.02127 -0.007256 0.1343

actor.b0 f2 [4, 128]
00000000: c925 f1a6 d61a ccac 61ac 1525 2c2c 85aa
00000010: ba11 a3a7 8cac 6bac b2a8 269c 74ac a922
00000020: aa9c 00ac 8828 432d 742b 549c b6a8 e2ad
00000030: 14a8 269d bb25 de24 4ead 962a 4ca8 7f94
00000040: 36ac 81a7 bbac a5a8 3829 0729 1b27 02ad
00000050: 0fa8 c0ad 3728 70a7 f2ab d1a9 5128 8028
00000060: 71ab 2ca3 4998 ca27 e2a0 82a6 5823 17a1
00000070: f828 02ac ae22 2828 c22d 5a27 0229 d929
00000080: 502c a7a0 8526 e4ac 92ac a9a4 e0a0 af1f
00000090: bba0 e495 3aa9 87a4 49a7 d7a9 4ead bea8
000000a0: e22a 0e8e c49f 1122 43a2 e6a9 8da6 53a7
000000b0: 0aac daa0 7dac 48a9 482d 03a9 2e91 14a5
000000c0: 7ba4 deae e5a8 8aa8 39ad b7a4 35b0 29a6
000000d0: c21d 8da4 a121 ef2a 98a3 9bad 2714 a1aa
000000e0: ab27 e298 afaa 2ba8 172a 871a b09d 8e22
000000f0: 18a8 2b1e c72d 201a 6428 95aa 2bac c8a5
00000100: a728 7c28 9cad 23b0 13af 9da6 8aad 0fac
00000110: 07a0 36a8 55ac 9ea8 e5ac 23a4 9c9d e91c
00000120: 07a8 bb8c c327 8017 2e19 87a8 51aa 6fac
00000130: 4527 b527 89ab 13a4 1aae fc20 211e 5fa0
00000140: b1a4 3cab fdab b1a6 79a2 62a9 2ba5 6da2
00000150: 5da9 83a3 bfa8 12aa 41aa 17ac 749f 151c
00000160: c8a8 e11c b4a5 e1a4 40a2 63af 0f2a 8f9d
00000170: a227 4814 432a 3d25 692c ad1e f2a5 582b
00000180: fda5 a12a 4ba4 0aad eba8 2cad 9ea8 ec2a
00000190: b4a7 f71c 02aa 5aa9 a7a9 df23 6aa8 409a
000001a0: 76a5 b2a5 c6a7 bc26 71a6 5ea9 461d f2aa
000001b0: f4a5 e3a0 67aa e6a8 6f22 56a2 84a8 cfa4
000001c0: 00a3 35a9 a7a6 2222 edac 27af 64b1 ffa9
000001d0: 80a3 c692 0821 f1a6 a2a6 cbad d5a6 f3ab
000001e0: 212c edac a622 a7a7 a82d 34ab 8223 aa1a
000001f0: faac 3f96 5520 06a8 b29d ce20 06ae 7bad
0.0226 -0.02711 0.003338 -0.07495 -0.0684 0.01985 0.0652 -0.05093
0.000699 -0.02983 -0.07104 -0.06903 -0.03668 -0.00405 -0.0696 0.01301
-0.004555 -0.0625 0.0354 0.0822 0.05823 -0.004227 -0.0368 -0.0919
-0.03186 -0.005028 0.02238 0.01901 -0.0829 0.05145 -0.03357 -0.001098
-0.0658 -0.02931 -0.0739 -0.0363 0.04077 0.03928 0.02776 -0.07825
-0.0317 -0.08984 0.03293 -0.02905 -0.06207 -0.04544 0.03372 0.03516
-0.05814 -0.01401 -0.002092 0.03043 -0.00954 -0.02542 0.01434 -0.00994
0.03882 -0.0626 0.01305 0.03247 0.08997 0.02872 0.03912 0.0457
0.0674 -0.00909 0.02547 -0.0764 -0.0714 -0.0182 -0.00952 0.007504
-0.00924 -0.001438 -0.04083 -0.01768 -0.02846 -0.04562 -0.0829 -0.03705
0.05377 -0.0003695 -0.007584 0.01185 -0.01223 -0.04608 -0.02559 -0.02861
-0.0631 -0.009476 -0.0701 -0.04126 0.0825 -0.03915 -0.0006323 -0.01984
-0.0175 -0.1073 -0.03824 -0.03546 -0.0816 -0.01842 -0.1315 -0.02406
0.005623 -0.01778 0.010994 0.05417 -0.01483 -0.0876 0.001014 -0.0518
0.02995 -0.002384 -0.05222 -0.03256 0.04758 0.003187 -0.005554 0.0128
-0.03198 0.006023 0.0903 0.00299 0.0343 -0.05142 -0.0651 -0.02258
0.03635 0.03503 -0.08765 -0.1293 -0.11053 -0.02583 -0.08655 -0.0634
-0.007866 -0.0329 -0.0677 -0.03607 -0.0765 -0.01616 -0.005478 0.004795
-0.03146 -0.0002887 0.03032 0.001831 0.00253 -0.03537 -0.04935 -0.0693
0.0284 0.0301 -0.05887 -0.01591 -0.09534 0.009735 0.005985 -0.00854
-0.01833 -0.05652 -0.0624 -0.02614 -0.01264 -0.04205 -0.02019 -0.01255
-0.0419 -0.01467 -0.03708 -0.04742 -0.04886 -0.0639 -0.00728 0.003986
-0.03735 0.004765 -0.02228 -0.01906 -0.01221 -0.1154 0.04733 -0.00543
0.02982 0.001045 0.04892 0.02046 0.0689 0.00652 -0.02322 0.05737
-0.02339 0.0518 -0.01677 -0.07874 -0.03842 -0.0808 -0.03607 0.05408
-0.03009 0.00485 -0.04694 -0.0418 -0.04416 0.01537 -0.0345 -0.003052
-0.02133 -0.02225 -0.03036 0.0263 -0.02516 -0.04193 0.00515 -0.05426
-0.02325 -0.009544 -0.05002 -0.03827 0.012566 -0.012375 -0.03528 -0.01878
-0.01367 -0.04068 -0.02599 0.01198 -0.07697 -0.11176 -0.1685 -0.04684
-0.01465 -0.000827 0.00983 -0.02711 -0.02591 -0.0905 -0.02669 -0.0621
0.0645 -0.07697 0.012985 -0.02989 0.0884 -0.05627 0.01466 0.003254
-0.07776 -0.001525 0.00846 -0.03143 -0.00556 0.009384 -0.0941 -0.08563

actor.w1 f2 [4, 151, 128]
00000000: 951d 6ab0 af26 4db1 b233 91ae c4ae e42d
00000010: d4a4 2c31 a429 9230 94b4 04a2 6d2b 7eaf
00000020: 9b23 a125 1333 2a26 1d2d f4ad 1124 d6ac
00000030: ff29 20b0 ecaf 4da8 9bb1 7aac 6521 739b
00000040: b12d 58ab 96ac d09c 1321 1e27 62a9 e026
00000050: b3b0 0731 302d fb29 3627 7da5 f830 2a28
00000060: e5a8 b928 0f2b 472d 64a2 a328 7b2e 5620
00000070: 0b2c 8bad 3f24 552b f029 33a9 2ca8 9032
00000080: c21f 9109 9023 ad2b a22e 7028 0d2d 8fab
00000090: 7a1f 562c 20ac b620 e12e c8a7 442a 5bac
000000a0: ca33 8128 9ea2 43b0 4828 412c b3a9 6f26
000000b0: 432b ea31 842a 96b0 79ab e6ae 74b0 07a1
000000c0: 502c 3126 1922 5f29 44a9 6ba9 26a9 f2a2
000000d0: cead e123 a82c 9eae 2f21 101a abb0 c331
000000e0: a92c 1db0 3bb0 bca0 251e aaa5 cbb0 18aa
000000f0: dfa5 8d30 9ead 31a0 921e 71a6 1c2b 942e
00000100: be2b 042a fa2c 9f27 4e34 b729 9f30 fe2c
00000110: bead cc2d a320 a02b 62ad d8ad 92a5 2fac
00000120: 86a0 3929 00ac 0cad 042d 2b30 c4b0 24a9
00000130: 8d2b 9eb2 f230 08b0 a8b0 6829 b431 0dac
00000140: ee2c f831 872e 5b24 5432 eca8 b6ac 282c
00000150: 1db2 1331 542f b92d 079c 1729 62ab 2d2e
00000160: cc30 c62f a2ae 712c dc2d 222f 8e33 0d17
00000170: 52ac d12b 75a6 9a29 5f32 55ac a22d 6631
00000180: ea2d 902f c0aa a5a4 ba2c 94a5 b532 4d29
00000190: e230 a30b 3d26 4225 412b 541a 3332 15ae
000001a0: b32c 0c2d c4ad 34a7 1a32 9e2a 0f32 ca2a
000001b0: 2d26 8128 a2ab 1cae 4da4 03a7 d3af 382c
000001c0: 4f98 efa7 f225 4e22 23b4 00a6 e22a 7ea9
000001d0: c1ac f625 8b31 8f92 d6a8 caa9 6eb2 fb2a
000001e0: a62b 6b29 c121 45ad 98a1 d72b b12c c4b2
000001f0: 2d25 0f2e 17ab 8cb3 e329 2931 422a 9220
0.00545 -0.138 0.02611 -0.1656 0.2405 -0.1026 -0.1057 0.09204
-0.01886 0.1616 0.04407 0.1428 -0.2861 -0.01175 0.058 -0.11707
0.014854 0.02199 0.2211 0.02408 0.0799 -0.093 0.01588 -0.07556
0.04684 -0.1289 -0.1238 -0.0336 -0.1752 -0.06995 0.01054 -0.003637
0.0889 -0.05737 -0.07166 -0.0047 0.00991 0.0278 -0.04205 0.02686
-0.1469 0.1571 0.08105 0.04672 0.02817 -0.02144 0.1553 0.03253
-0.03824 0.0369 0.05515 0.08246 -0.01248 0.03622 0.10126 0.00847
0.0632 -0.0866 0.01659 0.05728 0.0464 -0.04062 -0.0326 0.2051
0.007576 0.0001699 0.01477 0.05997 0.10364 0.03467 0.0789 -0.05905
0.0073 0.06775 -0.06445 0.0092 0.1075 -0.0304 0.04895 -0.06805
0.2434 0.0352 -0.012924 -0.1332 0.03345 0.06647 -0.04453 0.02513
0.05673 0.1848 0.0509 -0.1433 -0.05838 -0.1078 -0.1392 -0.00982
0.0674 0.02419 0.01191 0.04196 -0.04114 -0.04233 -0.04022 -0.013565
-0.0907 0.01539 0.07275 -0.1034 0.010124 0.00296 -0.1459 0.18
0.0728 -0.1285 -0.1322 -0.00925 0.006 -0.02213 -0.1498 -0.0476
-0.02293 0.1422 -0.08777 -0.00819 0.006416 -0.02516 0.05554 0.1028
0.0605 0.047 0.07776 0.02977 0.269 0.04465 0.1444 0.078
-0.0897 0.0906 0.009056 0.05957 -0.0841 -0.0913 -0.02176 -0.06537
-0.008835 0.0408 -0.0625 -0.07886 0.07837 0.1302 -0.1489 -0.04016
0.059 -0.2068 0.1545 -0.126 -0.1455 0.04224 0.1782 -0.0633
0.077 0.1865 0.102 0.01701 0.1978 -0.03845 -0.0736 0.06494
-0.191 0.1586 0.1145 0.0894 -0.003933 0.03976 -0.05768 0.0965
0.1499 0.12146 -0.10364 0.0694 0.09155 0.11145 0.2361 0.001721
-0.0675 0.06107 -0.02522 0.04376 0.1991 -0.0677 0.088 0.1687
0.0924 0.11816 -0.05273 -0.01814 0.07385 -0.02179 0.2096 0.0414
0.1526 0.000233 0.02437 0.02054 0.05667 0.00309 0.1937 -0.09503
0.0734 0.07886 -0.0901 -0.02814 0.1907 0.0517 0.1893 0.05304
0.02412 0.0352 -0.05963 -0.09546 -0.0168 -0.02739 -0.12225 0.0659
-0.002104 -0.03099 0.02322 0.012314 -0.2585 -0.02344 0.05377 -0.0429
-0.0743 0.02328 0.1732 -0.0008006 -0.03778 -0.04523 -0.2009 0.05453
0.05975 0.04233 0.01124 -0.08234 -0.010925 0.06125 0.0733 -0.2114
0.02022 0.09467 -0.0554 -0.2358 0.046 0.1613 0.0489 0.00893

actor.b1 f2 [4, 128]
00000000: 9a9e 1ea3 f81c 9a28 aeab b4a5 3ba2 2ea6
00000010: 9baa 80ae 2fa7 bfac 092b d926 78a5 2725
00000020: 22af 72ad de1d 279f 45a4 449f 869f c125
00000030: a5a3 8323 339a 0925 3627 6fa7 ae24 74a3
00000040: cfa2 0b23 0628 bc26 429c dda0 6325 03a3
00000050: 26a5 00a9 47aa 1ea6 d7a1 86ad b3a5 321b
00000060: ea98 79ac a1a8 f6a9 82a4 28a5 5fa9 682b
00000070: 0c25 0a26 d520 299f afad 4d29 75a5 6eaf
00000080: a5a7 0aa4 79a8 0ea9 7c1c 981d d2a5 ecab
00000090: 1e1c 3aa4 69a6 0d9d 3b1a 6aa7 a1a5 c62a
000000a0: 7aa4 afa0 d725 9b26 3421 eba5 66a3 58a7
000000b0: ff1a 3ba9 dca6 22a8 efa6 ea29 14b2 7c24
000000c0: 0c28 f5a1 d2a0 861c 99ac 5025 9726 afaa
000000d0: 1828 4f20 7ab1 f1a0 4128 3423 a991 cda4
000000e0: b4a8 372d 7329 1d22 4ba0 65a8 00a1 29ac
000000f0: a8b2 23ac 1724 68a4 96a8 d310 06a8 3daa
00000100: 7415 f5a5 41a5 73a5 22ad c99d 1fa0 081e
00000110: b9a4 0b83 0e98 b4a6 9da9 3999 78a6 ec1a
00000120: f8aa 1927 0125 4aa8 3918 fca1 3ea0 b91f
00000130: b6a7 52a9 dba3 b3a0 0ca6 3625 c518 4c1a
00000140: ea23 861d 3291 039d 60a0 3caf af96 199a
00000150: 5126 2a28 16a8 1da5 4121 1eab 1022 ba9f
00000160: 78a3 3ba8 899c 35a3 8922 d69d 2e99 7da3
00000170: 9b8f e5a9 b4ae 2e24 57a6 5422 98a4 98aa
00000180: cba8 001b 67a6 6c29 6785 b2a7 3924 241f
00000190: 7c20 ada5 8927 9da8 73a6 34a3 e729 5e27
000001a0: 221c f6a8 3828 4c1f 531a 9ba2 31a8 a4a6
000001b0: 59a5 8ea4 f81f 66aa efa8 de90 29ad ea25
000001c0: e6a2 5c9f de25 47a3 67ab 4a1b a615 f09d
000001d0: 6da4 31a3 b2b1 c71c 97a6 0f28 d726 ad15
000001e0: a225 26ab fe9d 9219 7d29 e5a1 2aa4 31ad
000001f0: 47b4 99a9 2aa5 5c2a ba94 b59e 7e94 b0a0
-0.006447 -0.0139 0.004852 0.03595 -0.06 -0.02228 -0.01217 -0.02414
-0.0516 -0.10156 -0.02806 -0.07416 0.05496 0.02675 -0.02136 0.02013
-0.11145 -0.0851 0.00573 -0.006985 -0.01668 -0.007095 -0.007347 0.02248
-0.01493 0.01467 -0.003027 0.01967 0.02817 -0.02904 0.01828 -0.01456
-0.0133 0.013756 0.03143 0.0263 -0.004158 -0.0095 0.02104 -0.013695
-0.02011 -0.03906 -0.04904 -0.0239 -0.011406 -0.0863 -0.02226 0.003513
-0.0024 -0.0699 -0.03616 -0.04657 -0.01761 -0.02014 -0.04196 0.05786
0.01971 0.02359 0.00944 -0.006992 -0.0888 0.0414 -0.02132 -0.1161
-0.02986 -0.01578 -0.03494 -0.0395 0.00438 0.005463 -0.02274 -0.0619
0.00402 -0.01651 -0.02504 -0.004932 0.003042 -0.02896 -0.02199 0.05292
-0.01749 -0.00915 0.02281 0.0258 0.01016 -0.02312 -0.01445 -0.02869
0.003416 -0.04086 -0.0268 -0.0323 -0.02708 0.0462 -0.19 0.01752
0.03162 -0.011635 -0.009415 0.004417 -0.07184 0.02075 0.02574 -0.05222
0.03198 0.008415 -0.1711 -0.00965 0.03323 0.01407 -0.000691 -0.01875
-0.03674 0.0815 0.04257 0.01194 -0.008385 -0.03433 -0.009766 -0.065
-0.208 -0.06464 0.01598 -0.01721 -0.03583 0.000589 -0.03143 -0.04874
0.001331 -0.02327 -0.02052 -0.02129 -0.0802 -0.00565 -0.00805 0.00589
-0.01845 -4.643e-05 -0.00198 -0.02618 -0.04385 -0.00255 -0.02527 0.00338
-0.05444 0.02773 0.01955 -0.0335 0.002062 -0.01169 -0.008286 0.00754
-0.03012 -0.04156 -0.01534 -0.00918 -0.02362 0.02036 0.002329 0.003075
0.01546 0.005394 -0.000634 -0.004894 -0.008545 -0.11304 -0.001632 -0.002977
0.02467 0.03253 -0.03192 -0.01997 0.01026 -0.0556 0.01184 -0.007545
-0.01459 -0.03305 -0.00443 -0.01408 0.012764 -0.0057 -0.00253 -0.014626
-0.0004642 -0.04605 -0.10474 0.01633 -0.02477 0.01236 -0.01794 -0.0515
-0.03745 0.003418 -0.02501 0.04236 -8.243e-05 -0.03006 0.0165 0.006973
0.00876 -0.02217 0.02943 -0.03604 -0.02519 -0.01407 0.0461 0.02878
0.004036 -0.03876 0.03296 0.007126 0.003088 -0.0129 -0.03275 -0.02594
-0.02089 -0.01779 0.007782 -0.05 -0.03854 -0.000594 -0.0806 0.0231
-0.01347 -0.007187 0.02292 -0.01421 -0.05783 0.00356 0.001379 -0.0058
-0.01729 -0.014046 -0.178 0.004665 -0.02574 0.0317 0.02672 0.001386
0.022 -0.05585 -0.00585 0.00272 0.04288 -0.01151 -0.01627 -0.0811
-0.2673 -0.04373 -0.02017 0.04968 -0.001154 -0.00655 -0.001097 -0.009155
